model.pt (torch, 251647 bytes, 10 tensors)

conv1.weight f4 [6, 3, 5, 5]
0.10286243 0.11099447 0.018309548 -0.040364802 0.06754714 -0.10807929 -0.114258364 -0.014058687
0.023742497 0.11357559 -0.02043648 0.059679195 -0.06800084 0.05557157 0.03856781 -0.08728969
0.08142713 0.004910797 -0.08180356 0.03137143 -0.00536754 0.036296934 0.020020604 0.068373814
0.0046986192 -0.033581607 0.05686374 0.09628141 0.070257396 -0.10078705 -0.006792359 -0.045660675
-0.101424955 0.10185872 -0.006997831 0.005075954 0.059658706 0.10181868 0.026825964 -0.0145141855
-0.011984959 0.099851534 -0.097628266 -0.056051884 -0.05000332 0.052034616 -0.10310999 0.10111308
-0.0715117 -0.003672503 -0.070613995 0.048750147 -0.027388208 -0.078839555 0.09168984 -0.04194776
0.04044485 -0.0203515 -0.085686415 -0.06805804 -0.053431477 0.08662465 -0.08306351 -0.07024258
0.064112246 0.063563794 0.029472426 -0.061064858 -0.09774488 0.054699287 -0.03928618 0.07607044
-0.061263572 0.034939885 -0.06389879 -0.110871516 0.10735929 0.08379178 0.0052244216 2.8468668e-05
-0.0873227 -0.09577879 -0.047261722 0.06599772 0.09196159 -0.0031160861 -0.054259133 0.05335383
-0.08462847 0.03519894 0.009734705 0.03351678 0.107549995 -0.009954385 0.055236712 0.013605416
0.047073722 -0.10305588 -0.08312342 -0.06717171 0.10838498 0.043189257 -0.0013950914 -0.0077635422
0.02729164 0.05842367 0.08127093 -0.044312745 0.034323767 0.07434903 -0.061352935 0.05330339
-0.0785396 0.072077855 -0.08237952 -0.051198862 0.07953934 0.064168766 0.02980125 0.1033131
-0.027632907 -0.05149284 -0.012610622 -0.05116953 0.0982047 0.036372095 -0.013942346 -0.08751723
-0.052951485 0.008954793 0.061450735 0.10137321 -0.076894864 0.032191873 0.06615321 -0.06576473
-0.085970335 -0.035392478 0.102633834 -0.10382009 0.110383764 0.015988186 0.020155638 -0.056234617
-0.065620646 -0.10377087 -0.073126175 0.014552504 0.073654264 -0.095199905 -0.042331986 0.062708974
-0.04606746 0.06223625 -0.03156919 0.08439095 0.108682916 0.048668712 -0.037234463 -0.09287932
0.06657018 -0.046590343 0.0752662 -0.01133997 0.08738041 0.029585794 -0.0109759495 -0.04912194
-0.038692646 -0.015653417 -0.038294584 0.024432242 0.0982676 -0.044599913 0.078715816 -0.057014477
0.0743539 -0.01869966 -0.09806557 -0.028518416 -0.062156323 0.09189175 0.063450485 -0.0047722086
0.02576141 -0.04080782 -0.042278647 0.05667168 -0.026644863 0.02570182 0.114326015 0.09520501
-0.043467842 0.111443505 0.087655246 -0.09783696 -0.06491695 -0.015948825 -0.05494531 0.019969001
-0.024273753 0.011735469 -0.062259298 -0.08956577 0.09346324 -0.069043085 -0.04781676 -0.034034163
-0.10396305 -0.03840866 -0.031540155 0.026696935 -0.0663908 -0.012256861 -0.07336733 0.10371244
-0.013696112 0.07334271 -0.083193816 -0.09281543 -0.032812163 -0.05244554 -0.07826695 0.014386967
0.08754876 0.012073576 -0.112661116 -0.050795406 -0.04595916 -0.07013017 0.09109622 -0.06405392
-0.052738816 0.038390666 -0.059912514 0.09560695 -0.028485395 -0.051670454 0.049590766 -0.08390996
-0.018212542 -0.07452273 0.06978963 -0.08559455 0.06533936 -0.049279712 0.10503894 0.0022719577
-0.07769057 0.022181273 0.01792027 -0.0048799664 -0.038355038 -0.05891808 0.03343956 0.014722183
00000000: 8aa9 d23d 1251 e33d e8fd 953c 9055 25bd
00000010: 2856 8a3d ad58 ddbd 4a00 eabd 6856 66bc
00000020: a07f c23c 529a e83d 686a a7bc 2c72 743d
00000030: 0644 8bbd 049f 633d 48f9 1d3d f0c4 b2bd
00000040: 44c3 a63d c0ea a03b a088 a7bd 547f 003d
00000050: 30e2 afbb 18ac 143d 4002 a43c 9207 8c3d
00000060: e0f6 993b de8c 09bd f4e9 683d 302f c53d
00000070: 1ce3 8f3d 7169 cebd 7092 debb b006 3bbd
00000080: e3b7 cfbd 4e9b d03d 104e e5bb 3054 a63b
00000090: b05c 743d 5086 d03d 20c2 db3c e8cc 6dbc
000000a0: 905c 44bc f67e cc3d 54f1 c7bd a996 65bd
000000b0: 48d0 4cbd 4022 553d 552b d3bd 6014 cf3d
000000c0: ba74 92bd 60ae 70bb 129e 90bd 3cae 473d
000000d0: 3c5d e0bc a276 a1bd e2c7 bb3d 6ad1 2bbd
000000e0: 80a9 253d 30b8 a6bc 5c7c afbd 0462 8bbd
000000f0: f7da 5abd 4468 b13d 341d aabd 57db 8fbd
00000100: 484d 833d bc2d 823d 2870 f13c 251f 7abd
00000110: 782e c8bd 5c0c 603d 8cea 20bd d2ca 9b3d
00000120: 83ef 7abd 201d 0f3d 5edd 82bd 9b10 e3bd
00000130: 30df db3d 069b ab3d a031 ab3b 00d0 ee37
00000140: 3ed6 b2bd ac27 c4bd 8295 41bd d029 873d
00000150: 5c56 bc3d 4037 4cbb d33e 5ebd 8c89 5a3d
00000160: b151 adbd c42c 103d 507e 1f3c e448 093d
00000170: 2c43 dc3d b817 23bc e43f 623d 40e9 5e3c
00000180: 60d0 403d f60e d3bd 9d3c aabd 5291 89bd
00000190: f2f8 dd3d 38e7 303d 80db b6ba 5065 febb
000001a0: b892 df3c a84d 6f3d 6071 a63d 4881 35bd
000001b0: 1497 0c3d 4e44 983d 374d 7bbd a854 5a3d
000001c0: 5fd9 a0bd 8e9d 933d 98b6 a8bd e6b5 51bd
000001d0: 86e5 a23d ea6a 833d c021 f43c d295 d33d
000001e0: 685e e2bc 28ea 52bd c89c 4ebc 2497 51bd
000001f0: 8c1f c93d e8fa 143d 706e 64bc 3c3c b3bd
00000200: a8e3 58bd 20b7 123c c4b3 7b3d c29c cf3d
00000210: 0e7b 9dbd a0db 033d 567b 873d a9af 86bd
00000220: 3711 b0bd b4f7 10bd b031 d23d a19f d4bd
00000230: e210 e23d a8f9 823c 701d a53c 4556 66bd
00000240: 1e64 86bd d285 d4bd 2dc3 95bd a06d 6e3c
00000250: 0cd8 963d 2bf8 c2bd 4e64 2dbd 906d 803d
00000260: 3cb1 3cbd 70eb 7e3d b24e 01bd 2ad5 ac3d
00000270: 2695 de3d d858 473d 2a83 18bd 8337 bebd
00000280: f255 883d 84d5 3ebd 2a25 9a3d 48cb 39bc
00000290: 80f4 b23d e85d f23c 78d4 33bc 1634 49bd
000002a0: 2e7c 1ebd 983b 80bc c8da 1cbd 2026 c83c
000002b0: 8640 c93d 66ae 36bd c235 a13d 0388 69bd
000002c0: dc46 983d 0830 99bc 9ad6 c8bd 749f e9bc
000002d0: a197 7ebd be31 bc3d 54f2 813d 3060 9cbb
000002e0: 9809 d33c 1a26 27bd 602c 2dbd 9020 683d
000002f0: 5446 dabc a08c d23c c223 ea3d d8fa c23d
00000300: 560b 32bd 7e3c e43d 9884 b33d be5e c8bd
00000310: 2ef3 84bd 1ca7 82bc 550e 61bd 0896 a33c
00000320: c0d9 c6bc 2046 403c 9b03 7fbd 426e b7bd
00000330: a869 bf3d 7666 8dbd 82db 43bd 6867 0bbd
00000340: 94ea d4bd 6652 1dbd 4030 01bd 88b3 da3c
00000350: e6f7 87bd 00d1 48bc 9c41 96bd 3067 d43d
00000360: a865 60bc b434 963d 8561 aabd 0416 bebd
00000370: 0c66 06bd 22d1 56bd 6c4a a0bd 50b7 6b3c
00000380: c44c b33d 40d0 453c dfba e6bd d80e 50bd
00000390: ac3f 3cbd 68a0 8fbd a890 ba3d b42e 83bd
000003a0: a804 58bd 883f 1d3d d366 75bd 94cd c33d
000003b0: 345a e9bc 66a4 53bd b01f 4b3d fcd8 abbd
000003c0: 7832 95bc 609f 98bd deed 8e3d 324c afbd
000003d0: a4d0 853d 86d9 49bd a81e d73d 20e5 143b
000003e0: 3c1c 9fbd 80b5 b53c 88cd 923c 20e8 9fbb
000003f0: 2c1a 1dbd 1654 71bd ecf7 083d 5035 713c

conv1.bias f4 [6]
-0.08430492 0.048770517 0.08991365 -0.063418 -0.019021347 0.09926608
00000000: 0fa8 acbd 98c3 473d a624 b83d 4ce1 81bd
00000010: a8d2 9bbc 044c cb3d

conv2.weight f4 [16, 6, 5, 5]
-0.0011050031 -0.0600483 -0.015541844 0.04831165 0.06413129 -0.0064674467 -0.0796591 -0.03256456
0.040925033 0.05295138 -0.078030586 -0.08105685 -0.059028223 -0.038214236 -0.022299878 -0.07743248
0.033409186 0.071004376 0.039675534 -0.07985928 -0.005248189 0.059386194 -0.040552452 -0.0043364465
-0.03622398 -0.020167086 0.01623892 -0.036310025 -0.025541097 -0.0029083118 -0.052607313 -0.008716278
-0.04609022 0.023856565 0.0730865 -0.059226356 -0.014360532 -0.042227987 -0.019185055 -0.033609997
-0.07093463 -0.069113344 0.0027300268 0.08150306 0.02996479 0.021042295 0.06438886 -0.002701737
0.0100209415 0.013084434 0.004221134 -0.04277877 -0.037675463 -0.054960243 -0.055435605 -0.050307292
-0.050636604 0.0012139231 0.023576908 0.015713148 0.065387845 -0.027337104 -0.051112577 0.037071347
-0.039869655 0.0063044354 -0.04036812 -0.058867212 0.058493108 0.028707989 0.025819525 -0.023378931
0.01013086 -0.07367508 0.025823578 0.0027409643 -0.0468314 0.0097248405 -0.005852759 -0.025086336
-0.01438304 -0.075194746 -0.023576647 0.029668622 0.07569286 -0.008965969 -0.06951887 0.038659036
0.08067618 0.07431437 -0.0034766272 0.0083152875 -0.025803473 -0.026313268 0.054501906 0.074164
0.07642904 0.042990863 -0.045994297 -0.050058525 0.027934365 -0.010501489 0.025808856 -0.048261575
0.038035765 0.07574521 0.05228801 -0.06916046 -0.008354425 0.028589413 0.058658376 -0.06473316
0.07426962 0.017903611 -0.07302747 0.080763385 0.056309775 0.03752411 -0.005929813 0.06856233
0.003859371 -0.042643156 0.047436178 -0.08066351 0.061468124 -0.065658845 0.0680161 0.043297708
-0.07350891 0.024271563 -0.040087543 -0.024278045 -0.04792764 0.021581396 -0.03652772 -0.034316428
-0.06379173 -0.00083485246 0.0092776865 -0.0013322309 -0.06819709 -0.0591883 0.079216346 0.021589808
-0.031366322 0.018132582 0.034784533 -0.04737928 -0.050423414 -0.012995228 -0.014815383 -0.040574692
-0.02102442 0.037046053 -0.03848749 0.013617054 -0.037769537 -0.03082031 -0.05571869 0.05705212
0.021023303 0.061699003 -0.037464123 -0.020341761 -0.040252544 0.05574894 0.064005315 -0.01760649
-0.055876292 -0.043515503 0.03058578 0.077033654 -0.017833754 -0.031788293 0.060669005 0.05871047
-0.048476674 -0.026258964 0.04071167 0.05788283 0.06386046 0.07388669 0.06168443 0.059031233
0.018504426 0.043285385 -0.055068355 -0.046338663 0.061016515 -0.0325038 -0.030979887 0.075587645
-0.06626429 0.0018055364 0.023042269 -0.044084195 0.017646268 0.021512426 0.002059266 0.0614381
-0.06355088 0.05417426 0.0792986 0.0627297 -0.013983563 -0.047105365 -0.031435333 -0.0621535
-0.0772018 0.050553784 0.04565434 -0.0076737627 -0.04653438 0.02702301 0.024743564 -0.039489105
-0.06378106 -0.04657472 0.052015588 0.04389277 -0.0010564327 0.07185945 -0.0497213 -0.010103621
-0.08091993 -0.06528214 0.032301433 -0.052618 0.04007574 -0.010592602 0.023352906 0.003201425
0.02169624 0.052959114 -0.08157435 -0.003501229 -0.0047421902 0.057208106 -0.07839793 0.0709614
-0.035532683 -0.02477479 -0.047322262 -0.06637102 0.041645773 0.047123402 -0.0064554885 -0.0248521
0.077047005 -0.0037872717 -0.014145441 -0.0062643886 -0.056707956 -0.0029695928 0.07577667 0.0353422
00000000: c0d5 90ba 35f5 75bd 38a3 7ebc 70e2 453d
00000010: 4457 833d e0ec d3bb 4f24 a3bd 6b62 05bd
00000020: 02a1 273d 8ce3 583d 80ce 9fbd 2201 a6bd
00000030: 94c7 71bd 8886 1cbd 3cae b6bc ec94 9ebd
00000040: 12d8 083d be6a 913d d082 223d 438d a3bd
00000050: 00f9 abbb f03e 733d 541a 26bd c018 8ebb
00000060: 995f 14bd 7235 a5bc 7c07 853c d2b9 14bd
00000070: 903b d1bc 6099 3ebb c47a 57bd b8ce 0ebc
00000080: 19c9 3cbd d86e c33c 60ae 953d 5697 72bd
00000090: 7048 6bbc 41f7 2cbd fa29 9dbc a3aa 09bd
000000a0: 2d46 91bd 4c8b 8dbd 40ea 323b 14eb a63d
000000b0: b878 f53c e460 ac3c 4ede 833d a00f 31bb
000000c0: e02e 243c 1860 563c 7051 8a3b cb38 2fbd
000000d0: 9651 1abd fe1d 61bd 7210 63bd 050f 4ebd
000000e0: 5468 4fbd 801c 9f3a 5c24 c13c dcb8 803c
000000f0: 10ea 853d 10f2 dfbc 6c5b 51bd 20d8 173d
00000100: 5d4e 23bd 7095 ce3b 0b59 25bd bf1e 71bd
00000110: 7896 6f3d 042d eb3c 7883 d33c 2c85 bfbc
00000120: e8fb 253c f6e2 96bd f88b d33c c0a1 333b
00000130: 48d2 3fbd f054 1f3c 80c8 bfbb dc81 cdbc
00000140: d8a6 6bbc b4ff 99bd d023 c1bc 9c0b f33c
00000150: dc04 9b3d 00e6 12bc e95f 8ebd f058 1e3d
00000160: 8e39 a53d 2232 983d 20d8 63bb d83c 083c
00000170: ce61 d3bc ec8e d7bc 643d 5f3d 4ce3 973d
00000180: d486 9c3d 3017 303d 8464 3cbd 2b0a 4dbd
00000190: 9cd6 e43c 700e 2cbc 186d d33c eead 45bd
000001a0: 64cb 1b3d 4e20 9b3d f42b 563d 00a4 8dbd
000001b0: 00e1 08bc 5834 ea3c c443 703d d292 84bd
000001c0: ac1a 983d 98aa 923c 6d8f 95bd 4667 a53d
000001d0: 14a5 663d e2b2 193d e04e c2bb 686a 8c3d
000001e0: 80ed 7c3b 97aa 2ebd 704c 423d e932 a5bd
000001f0: 00c6 7b3d 2578 86bd 064c 8b3d f058 313d
00000200: d78b 96bd 28d5 c63c d632 24bd c0e2 c6bc
00000210: c64f 44bd 78cb b03c 179e 15bd 628f 0cbd
00000220: 3da5 82bd 00da 5aba 7001 183c 409e aeba
00000230: eaaa 8bbd 6e6f 72bd 2e3c a23d 1cdd b03c
00000240: f979 00bd c88a 943c 3a7a 0e3d c710 42bd
00000250: c888 4ebd f0e9 54bc 38bc 72bc a631 26bd
00000260: 683b acbc 9abd 173d 0fa5 1dbd 101a 5f3c
00000270: 3bb4 1abd e07a fcbc 4839 64bd 7caf 693d
00000280: 1039 ac3c 18b8 7c3d fb73 19bd c4a3 a6bc
00000290: dadf 24bd 0059 643d 3815 833d 7c3b 90bc
000002a0: 8ade 64bd 503d 32bd 088f fa3c d2c3 9d3d
000002b0: 1818 92bc 7134 02bd 1080 783d 647a 703d
000002c0: 7a8f 46bd 0a1d d7bc 48c1 263d 8c16 6d3d
000002d0: 46c9 823d e851 973d d0a8 7c3d bcca 713d
000002e0: 9896 973c 044c 313d 5b8f 61bd 9ccd 3dbd
000002f0: 74ec 793d b422 05bd 88c9 fdbc b2cd 9a3d
00000300: 92b5 87bd c0a7 ec3a 24c3 bc3c a191 34bd
00000310: e88e 903c d43a b03c c0f4 063b 84a6 7b3d
00000320: f726 82bd d4e5 5d3d 4e67 a23d 6e78 803d
00000330: 501b 65bc 8ef1 40bd 56c2 00bd ab94 7ebd
00000340: fa1b 9ebd 7c11 4f3d 0c00 3b3d 3074 fbbb
00000350: d69a 3ebd 5c5f dd3c 04b3 ca3c 54bf 21bd
00000360: a59f 82bd 22c5 3ebd 4c0e 553d e8c8 333d
00000370: 0078 8aba 0c2b 933d 90a8 4bbd a889 25bc
00000380: 59b9 a5bd a5b2 85bd 824e 043d f985 57bd
00000390: 7626 243d 988c 2dbc 984e bf3c 00cf 513b
000003a0: 50bc b13c a8eb 583d 7410 a7bd e074 65bb
000003b0: 6064 9bbb 0c53 6a3d 188f a0bd 3654 913d
000003c0: b88a 11bd 80f4 cabc fdd4 41bd 88ed 87bd
000003d0: c294 2a3d 7804 413d 9088 d3bb a296 cbbc
000003e0: d2ca 9d3d e033 78bb 48c2 67bc 8045 cdbb
000003f0: 9a46 68bd 809d 42bb cc30 9b3d fcc2 103d

conv2.bias f4 [16]
0.026462413 -0.051649585 -0.07144914 0.0006688237 -0.041428827 0.025860414 -0.06568135 -0.010692313
0.0794114 -0.055550918 -0.00621894 0.011935912 -0.0022081807 0.08067219 0.05434835 -0.069301486
00000000: b4c7 d83c 848e 53bd ed53 92bd 0054 2f3a
00000010: 46b1 29bd 38d9 d33c f283 86bd d02e 2fbc
00000020: 72a2 a23d 5c89 63bd 40c8 cbbb d88e 433c
00000030: 20b7 10bb 7637 a53d 609c 5e3d f0ed 8dbd

fc1.weight f4 [120, 400]
-0.034423094 -0.022685444 -0.0022545084 -0.015190773 0.029390004 0.014772315 0.03141174 -0.027326768
0.01387227 0.04163048 -0.0012457557 0.006085772 0.009955578 -0.049445517 -0.026319325 -0.03211374
0.03476358 -0.017996829 -0.04153316 0.029276412 -0.02724855 0.02411623 0.004884638 -0.005793713
-0.040620297 -0.005614221 -0.029345173 -0.048752435 0.037571613 -0.00042722374 0.0038102753 -0.024282414
-0.0310803 0.040052477 -0.034493208 -0.026029294 -0.00953155 0.049329463 0.029298577 0.041720156
0.038634304 0.016680319 0.039551977 0.03939489 -0.002543319 0.0011840835 -0.038896434 0.015609276
-0.001865793 -0.04164639 -0.04971363 -0.010416023 -0.0055347756 -0.0037556216 0.032309 0.008194726
0.028112952 -0.014878351 0.01885191 -0.005530983 0.03922433 -0.013403006 -0.005086083 0.03413144
0.04158769 -0.046399415 0.048784416 -0.04353651 -0.047707904 0.021287207 0.04958308 0.027443264
-0.018096726 0.031000722 -0.009320211 -0.00437171 -0.023042833 0.005280923 -0.007158052 -0.007442601
0.0044339895 0.012373202 0.04290915 -0.032194234 0.044531528 -0.008378573 -0.032971174 -0.02334398
-0.0017336793 0.005562376 0.035165932 -0.03225293 -0.01952129 -0.049471714 -0.033313382 0.035035577
0.004577793 -0.03909876 -0.013003003 -0.0031934902 0.03494228 -0.027695358 -0.037189 -0.0428508
-0.04210732 0.01849201 -0.042865474 -0.008538745 0.04195294 -0.0139889605 0.016214829 -0.024743348
-0.038347214 -0.033452302 0.026145402 -0.037285965 0.026375864 -0.004595451 0.041560907 0.02269176
-0.020479584 -0.025831854 -0.023305804 0.024298605 -0.045104474 -0.0074316673 0.02769101 0.02130976
-0.047794677 0.02410515 0.010905284 0.043546822 -0.020350367 -0.014916826 0.015650641 0.010427982
-0.018002532 -0.024915045 0.044888463 -0.046630282 0.027682666 0.03708228 0.010085098 0.021419208
0.020647291 -0.0033397302 0.016051281 0.035606954 -0.018382601 -0.026162481 -0.0037064068 -0.04140209
-0.03106128 0.015336018 -0.047414046 -0.032215446 -0.016325273 -0.031168366 0.03429747 -0.017280973
0.048312243 -0.036639433 -0.040412687 0.010022841 0.029522363 0.004728757 -0.039507657 -0.01180486
-0.015547089 0.031798553 0.0050114617 0.021900315 0.0032479689 -0.04471236 0.045541603 0.018726502
-0.040225923 0.017717045 -0.0015208125 0.033666026 0.004406601 -0.009745419 -0.0048084967 0.04098558
0.004474759 -0.0004610233 0.048057977 0.008269906 0.00041184574 -0.03195984 0.011128288 -0.02829423
0.007121615 0.035161074 0.036973763 -0.019054515 0.015706647 0.029689986 0.02137829 0.04984166
0.022989731 0.008286051 0.002630312 0.0035069957 -0.049764883 0.013588164 -0.036221553 -0.048342098
0.04045393 0.030207146 -0.03913451 -0.018830478 0.0015025325 -0.00953294 0.048478905 0.0078062043
-0.004478313 0.02248663 0.00011956692 -0.023668641 -0.035346657 0.029505823 -0.020818997 0.0010579936
-0.012983222 0.029332984 -0.038879894 0.0053988695 0.0042947307 0.046202403 -0.04512955 -0.0061199777
0.015086774 -0.019396031 -0.037807208 -0.01738754 -0.019229723 -0.048324108 -0.02467667 0.044536714
0.049510513 -0.040347617 -0.042404886 -0.029803747 0.019959655 -0.045126814 -0.0069874227 -0.0078705065
-0.028306795 -0.024076706 -0.008321952 -0.01795429 0.017509568 -0.00433271 -0.041041635 0.024014685
00000000: 3bff 0cbd d3d6 b9bc 60c0 13bb b8e2 78bc
00000010: 4ec3 f03c 9407 723c 99a9 003d 63dc dfbc
00000020: 8448 633c b984 2a3d a048 a3ba 286b c73b
00000030: b81c 233c 6287 4abd a09b d7bc b289 03bd
00000040: 4164 0e3d 166e 93bc ad1e 2abd 16d5 ef3c
00000050: 5a38 dfbc 668f c53c 500f a03b 30d9 bdbb
00000060: 7861 26bd 80f7 b7bb 4a65 f0bc a2b0 47bd
00000070: b1e4 193d 00fd dfb9 d0b5 793b eaeb c6bc
00000080: 1d9c febc 110e 243d c048 0dbd 633b d5bc
00000090: 382a 1cbc b10d 4a3d 9203 f03c c1e2 2a3d
000000a0: 013f 1e3d 2aa5 883c 4101 223d 895c 213d
000000b0: d0ad 26bb 4033 9b3a de51 1fbd 0cbe 7f3c
000000c0: a08d f4ba 6895 2abd 85a0 4bbd f8a7 2abc
000000d0: 105d b5bb e020 76bb 7156 043d 2c43 063c
000000e0: 224d e63c 54c4 73bc 526f 9a3c 403d b5bb
000000f0: b1a9 203d 4898 5bbc 28a9 a6bb 69cd 0b3d
00000100: db57 2a3d 500d 3ebd 2bd2 473d 5753 32bd
00000110: 5d69 43bd 8262 ae3c a117 4b3d b2d0 e03c
00000120: 963f 94bc 3af5 fd3c ccb3 18bc 9040 8fbb
00000130: 53c4 bcbc 980b ad3b 188e eabb 10e1 f3bb
00000140: 004b 913b f8b8 4a3c 81c1 2f3d 1ade 03bd
00000150: b166 363d 4846 09bc c80c 07bd e03b bfbc
00000160: a03c e3ba 9844 b63b 270a 103d a61b 04bd
00000170: 1deb 9fbc daa2 4abd 9d73 08bd 7781 0f3d
00000180: 5001 963b 0526 20bd 8c0a 55bc e049 51bb
00000190: a31f 0f3d 60e1 e2bc 7e53 18bd 5284 2fbd
000001a0: ba78 2cbd 8e7c 973c b593 2fbd 18e6 0bbc
000001b0: d9d6 2b3d f431 65bc f6d4 843c 90b2 cabc
000001c0: f811 1dbd 4805 09bd e22e d63c 2bb9 18bd
000001d0: 3212 d83c 7095 96bb c53b 2a3d 12e4 b93c
000001e0: cdc4 a7bc 539d d3bc d0eb bebc de0d c73c
000001f0: 78bf 38bd 5885 f3bb 42d8 e23c ce91 ae3c
00000200: 5ac4 43bd 2a78 c53c 14ac 323c 275e 323d
00000210: d0b5 a6bc b465 74bc c635 803c 20da 2a3c
00000220: 0c7a 93bc a31a ccbc f7dc 373d 65ff 3ebd
00000230: c2c6 e23c 97e3 173d f83b 253c 5677 af3c
00000240: 8224 a93c 60df 5abb fa7d 833c 99d8 113d
00000250: 1c97 96bc b352 d6bc 30e7 72bb 3d95 29bd
00000260: 3a74 febc ec43 7b3c 3b35 42bd 58f4 03bd
00000270: 94bc 85bc cd54 ffbc 817b 0c3d d490 8dbc
00000280: 0fe3 453d 3b13 16bd c687 25bd d836 243c
00000290: e2d8 f13c b0f3 9a3b c8d2 21bd 2c69 41bc
000002a0: 38b9 7ebc 333f 023d 3037 a43b 4a68 b33c
000002b0: e0db 543b 4f24 37bd d589 3a3d 5268 993c
000002c0: f0c3 24bd 5623 913c 0056 c7ba 63e5 093d
000002d0: 4065 903b 40ab 1fbc 9890 9dbb 7fe0 273d
000002e0: 00a1 923b 80b5 f1b9 71d8 443d 807e 073c
000002f0: 00ed d739 52e8 02bd 6c53 363c 4dc9 e7bc
00000300: 705c e93b 0f05 103d cd71 173d 3718 9cbc
00000310: 3aab 803c 6a38 f33c 8621 af3c c526 4c3d
00000320: f654 bc3c 38c2 073c 5061 2c3b a0d5 653b
00000330: 43d6 4bbd e4a0 5e3c 0d5d 14bd 5d02 46bd
00000340: 05b3 253d fa74 f73c 824b 20bd 6042 9abc
00000350: a0f0 c43a 0c30 1cbc d191 463d 30cb ff3b
00000360: d0be 92bb e235 b83c 00c0 fa38 bde4 c1bc
00000370: a8c7 10bd 32b6 f13c 9a8c aabc 60ac 8a3a
00000380: 94b7 54bc ba4b f03c 8640 1fbd 00e9 b03b
00000390: d0ba 8c3b bb3e 3d3d c3d9 38bd 188a c8bb
000003a0: 842e 773c 6de4 9ebc bbdb 1abd 5070 8ebc
000003b0: a787 9dbc 80ef 45bd ba26 cabc 216c 363d
000003c0: 89cb 4a3d 8b43 25bd bfb0 2dbd fd26 f4bc
000003d0: 6e82 a33c e5d6 38bd c0f6 e4bb 4cf3 00bc
000003e0: a7e3 e7bc 833c c5bc cc58 08bc e014 93bc
000003f0: 3a70 8f3c 68f9 8dbb 461b 28bd 72ba c43c

fc1.bias f4 [120]
0.005705755 -0.022426367 0.028437141 0.04254738 0.012962002 0.008897565 -0.048073012 -0.04602441
0.018215384 0.036584947 -0.033631075 0.009293228 -0.0035914257 0.042307723 -0.046589285 0.004034288
0.0072762184 -0.015104182 -0.011368632 0.0084913 0.020545427 0.016749557 0.007874984 -0.040080536
-0.0151107535 0.00093316287 -0.021924539 -0.04406202 -0.003789276 0.0059925616 0.046468806 -0.03202855
-0.010379471 0.0003908798 -0.021689897 -0.035453063 -0.033226438 0.0046815686 0.038084473 0.046736274
-0.0028703809 -0.018383097 0.044824217 -0.02504586 0.03621823 0.037783932 0.03414004 -0.04323562
0.020842824 -0.0027216189 0.04384728 0.025575567 -0.03932509 -0.025383104 0.0030265935 -0.0012550466
0.040347133 -0.047038507 -0.04224947 0.012439899 0.025189374 0.011257552 -0.046885457 -0.028372198
-0.029567862 -0.010480989 0.0024637282 0.015262548 -0.009050835 -0.0047215447 0.02245434 0.049147833
0.024291757 0.0022310093 -0.039519884 0.04885919 -0.01492529 0.020051736 -0.03393095 0.016534936
0.0017072633 8.40947e-05 -0.018223643 -0.0057764836 -0.02944634 0.010091387 0.027938109 0.03458484
-0.031853564 0.0223887 -0.04369781 0.040339325 0.04742853 0.004501939 -0.032625012 -0.026682466
-0.04922817 0.01156332 -0.011114597 0.018010166 0.0361788 0.0486216 -0.04096063 -0.04144902
0.03887773 -0.02553975 0.023299579 -0.03015849 -0.02373358 0.013311889 0.047233973 0.02990419
0.04485694 -0.038855314 -0.009494256 0.005349569 -0.009281855 -0.021848513 -0.035896182 -0.01907447
00000000: 58f7 ba3b 80b7 b7bc 02f5 e83c 2946 2e3d
00000010: 945e 543c 18c7 113c 35e8 44bd 1784 3cbd
00000020: 6e38 953c 19da 153d bdc0 09bd a042 183c
00000030: 205e 6bbb dd4a 2d3d 68d4 3ebd 1032 843b
00000040: 586d ee3b 8877 77bc 8043 3abc 181f 0b3c
00000050: e24e a83c 5e36 893c 1406 013c 7d2b 24bd
00000060: 1893 77bc 809f 743a 179b b3bc 607a 34bd
00000070: 8055 78bb 405d c43b 1356 3e3d 5e30 03bd
00000080: a80e 2abc 00ef cc39 03af b1bc 3b37 11bd
00000090: 7218 08bd d867 993b 77fe 1b3d 896e 3f3d
000000a0: 001d 3cbb 2698 96bc 9999 373d fa2c cdbc
000000b0: 9159 143d 53c3 1a3d 6dd6 0b3d d517 31bd
000000c0: 92be aa3c 305d 32bb 3599 333d da83 d13c
000000d0: 5813 21bd 3af0 cfbc d059 463b 6080 a4ba
000000e0: 0943 253d 73ab 40bd c80d 2dbd b8d0 4b3c
000000f0: f259 ce3c 9871 383c f70a 40bd d06c e8bc
00000100: 4d38 f2bc 74b8 2bbc 8076 213b c40f 7a3c
00000110: f449 14bc 30b7 9abb 2af2 b73c 3d4f 493d
00000120: 82ff c63c 2036 123b 9adf 21bd 9320 483d
00000130: 3489 74bc 8a43 a43c 2efb 0abd 4674 873c
00000140: 40c6 df3a 005c b038 c049 95bc a848 bdbb
00000150: 7339 f1bc 5856 253c 76de e43c d5a8 0d3d
00000160: e278 02bd 8268 b73c 7afc 32bd d93a 253d
00000170: 6b44 423d 0085 933b cea1 05bd 3095 dabc
00000180: 7aa3 49bd 1474 3d3c 001a 36bc 0e8a 933c
00000190: 3930 143d 7127 473d 55c6 27bd 73c6 29bd
000001a0: 413e 1f3d bd38 d1bc c2de be3c f00e f7bc
000001b0: ed6c c2bc 1c1a 5a3c 6978 413d a2f9 f43c
000001c0: e9bb 373d c026 1fbd cc8d 1bbc 704b af3b
000001d0: ec12 18bc a7fb b2bc e007 13bd 1042 9cbc

fc2.weight f4 [84, 120]
0.01244466 0.0790277 -0.04251856 0.085788056 0.07486062 0.058717415 0.0037624016 0.023897663
0.049628258 0.025369555 -0.0033686385 0.024403892 -0.033520337 0.018427059 0.08676241 0.0152281
-0.08908116 -0.027138434 0.045996845 0.017290361 -0.01780925 0.022920787 0.017002352 -0.013303086
0.032213338 0.053821325 -0.06926313 0.05340512 -0.06047497 0.087405175 0.071341544 0.09120233
0.04215111 0.06804995 -0.047574233 -0.054529745 0.06973648 0.053962916 0.058820486 0.03546828
-0.02433712 0.007092908 -0.062278055 -0.071545824 0.07193367 -0.025504619 -0.05326231 0.028460912
-0.013982788 0.057930067 -0.013988428 -0.026822835 -0.08771245 0.06521347 0.018387184 -0.071771234
-0.015285499 -0.061629504 -0.057109017 -0.061850414 0.05048497 -0.06473695 0.014154993 -0.019843005
-0.08973653 0.037825853 0.08407171 -0.07002118 0.034543604 -0.019424386 0.060005143 0.0875919
0.026504308 -0.020020165 0.043456793 0.017083324 0.015118912 -0.07267925 0.027548283 -0.08500754
-0.023996167 -0.006227903 0.008178256 -0.0013436303 0.0717413 0.0011657849 0.082194746 -0.07952842
0.06655191 0.0888329 0.0250142 -0.008865684 0.048037693 0.027389772 -0.029523477 0.05417587
0.056714162 -0.07854357 0.036437705 -0.04081874 0.050725713 -0.06699859 0.07072218 0.05983241
-0.056034457 0.005882904 -0.042195912 0.051629454 0.04592152 0.048160523 -0.077725284 0.016062066
-0.039829195 -0.029619329 0.039217427 0.088505596 -0.08039767 0.03609632 -0.041657805 -0.0032457486
0.03063801 -0.009501748 0.010846324 0.033769056 0.024348587 -0.0010379627 0.028809994 -0.08510221
0.06897731 -0.052920945 -0.031117521 -0.05451401 0.014195569 -0.08451112 0.06281577 -0.054233823
0.028022602 -0.051012605 0.086303025 0.02568262 0.056610614 -0.02713462 -0.011641778 0.025719501
0.04247731 0.08608547 -0.032799106 -0.03712975 0.019723743 -0.08414173 0.04859045 -0.058418937
-0.019432947 -0.085787974 0.03307063 0.01282084 0.07393561 -0.06037406 -0.011396177 -0.038832877
-0.063806824 -0.08695246 -0.008112535 -0.044113673 0.032339483 -0.08878834 -0.088880986 -0.010877691
0.0865116 -0.08541387 0.037688002 -0.03710204 0.03678538 0.06763874 -0.05869141 -0.06469774
-0.045479048 0.06896949 0.019288711 -0.03975945 0.009037137 0.01792644 -0.05229959 0.05740437
0.030662827 -0.024862178 0.079133764 -0.07804205 -0.089860894 -0.057666276 -0.043282103 -0.078988716
0.062344223 -0.07669713 0.073177814 -0.0063810796 -0.020062909 -0.09042573 0.003053017 0.02002059
-0.09085031 0.08888219 0.029131107 -0.010122731 0.027827062 -0.024388425 0.010047436 0.07750358
0.086252466 -0.03379938 0.040870324 -0.055208668 -0.08905655 0.0057573095 -0.026386045 0.03530003
-0.040101163 -0.07331314 0.06266546 0.045756012 -0.03635592 -0.086584195 -0.08024211 0.0019542277
0.00496386 0.032957092 -0.031035416 0.08289872 0.08232203 -0.02151148 0.08086194 -0.07333829
-0.03903716 -0.04995312 -0.015743062 -0.0230451 0.015015684 -0.041716024 0.009207621 0.074602306
0.022079192 0.02125252 -0.0060038343 -0.058787987 0.059968114 0.059414506 -0.038564816 -0.06603478
0.086757764 -0.015082881 0.09010655 0.05451402 0.028019011 0.084826544 -0.03133332 0.071532115
00000000: b0e4 4b3c 46d9 a13d f127 2ebd a6b1 af3d
00000010: 8650 993d ac81 703d a092 763b 08c5 c33c
00000020: 0047 4b3d d0d3 cf3c 60c4 5cbb acea c73c
00000030: 9f4c 09bd 58f4 963c 7eb0 b13d 487f 793c
00000040: 2f70 b6bd 6c51 debc 3067 3c3d 84a4 8d3c
00000050: b4e4 91bc 60c4 bb3c 8448 8b3c 30f5 59bc
00000060: 22f2 033d c073 5c3d d4d9 8dbd 54bf 5a3d
00000070: 9ab4 77bd 7c01 b33d 841b 923d 4ac8 ba3d
00000080: a4a6 2c3d c65d 8b3d 33dd 42bd 955a 5fbd
00000090: 00d2 8e3d 3808 5d3d c0ed 703d 3047 113d
000000a0: a45e c7bc a06b e83b 4617 7fbd 9e86 92bd
000000b0: f651 933d 10ef d0bc 9429 5abd dc26 e93c
000000c0: 1018 65bc 1448 6d3d b82f 65bc 90bb dbbc
000000d0: 96a2 b3bd a48e 853d b8a0 963c ccfc 92bd
000000e0: 0870 7abc 386f 7cbd 25eb 69bd dc56 7dbd
000000f0: 54c9 4e3d ce94 84bd 58ea 673c cc8d a2bc
00000100: c9c7 b7bd 48ef 1a3d ca2d ac3d 4467 8fbd
00000110: 987d 0d3d e41f 9fbc f4c7 753d 6263 b33d
00000120: 901f d93c 5401 a4bc c0ff 313d 54f2 8b3c
00000130: 50b5 773c dcd8 94bd f0ac e13c 6f18 aebd
00000140: 9c93 c4bc 7013 ccbb 18fe 053c c01c b0ba
00000150: 1aed 923d 40cd 983a b855 a83d ccdf a2bd
00000160: 5e4c 883d 06ee b53d 94ea cc3c 6041 11bc
00000170: 2cc3 443d 8460 e03c 38db f1bc 84e7 5d3d
00000180: 1c4d 683d 74db a0bd b43f 153d 8d31 27bd
00000190: c4c5 4f3d 8f36 89bd cad6 903d d412 753d
000001a0: 6384 65bd 60c5 c03b 9fd5 2cbd 6879 533d
000001b0: 3418 3c3d f843 453d 6f2e 9fbd 9894 833c
000001c0: f023 23bd 3ca4 f2bc 74a2 203d 6c42 b53d
000001d0: 89a7 a4bd bcd9 133d 60a1 2abd a0b6 54bb
000001e0: 90fc fa3c 38ad 1bbc c8b4 313c 6c51 0a3d
000001f0: b076 c73c 400c 88ba f002 ec3c 114a aebd
00000200: fa43 8d3d a2c3 58bd 2cea febc 154a 5fbd
00000210: 8894 683c 2b14 adbd 8ea5 803d 4924 5ebd
00000220: a88f e53c 98f2 50bd a4bf b03d 5c64 d23c
00000230: 88e0 673d 6c49 debc 28bd 3ebc b4b1 d23c
00000240: b0fc 2d3d 944d b03d 5b58 06bd 5d15 18bd
00000250: b093 a13c 8052 acbd c806 473d b248 6fbd
00000260: d831 9fbc 9bb1 afbd 1275 073d 800e 523c
00000270: 8e6b 973d ca4a 77bd 08b7 3abc 390f 1fbd
00000280: 27ad 82bd 2214 b2bd 70ea 04bc 8ab0 34bd
00000290: 6876 043d a9d6 b5bd 3c07 b6bd 5838 32bc
000002a0: fe2c b13d 78ed aebd bc5e 1a3d 4ff8 17bd
000002b0: 44ac 163d 2e86 8a3d 6766 70bd 4080 84bd
000002c0: 3d48 3abd e03f 8d3d 5c03 9e3c ceda 22bd
000002d0: 8010 143c 78da 923c 1838 56bd d820 6b3d
000002e0: 9c30 fb3c c4ab cbbc e210 a23d 83d4 9fbd
000002f0: fd08 b8bd 7933 6cbd 9348 31bd d6c4 a1bd
00000300: a85c 7f3d 6313 9dbd 40de 953d 6018 d1bb
00000310: f85a a4bc 2031 b9bd 2015 483b 3802 a43c
00000320: ba0f babd de07 b63d 5ca4 ee3c d0d9 25bc
00000330: 94f5 e33c 3cca c7bc 009e 243c 32ba 9e3d
00000340: 22a5 b03d 3871 0abd a467 273d 7c22 62bd
00000350: 4863 b6bd d0a7 bc3b 8c27 d8bc c496 103d
00000360: 1e41 24bd 3325 96bd c056 803d a86a 3b3d
00000370: f2e9 14bd 0e53 b1bd fa55 a4bd 8012 003b
00000380: e0a7 a23b 04fe 063d fc3d febc cec6 a93d
00000390: 7498 a83d d838 b0bc f29a a53d 6332 96bd
000003a0: 6ee5 1fbd a59b 4cbd 98f7 80bc 14c9 bcbc
000003b0: 5804 763c 6cde 2abd 90db 163c 18c9 983d
000003c0: 6cdf b43c c419 ae3c d0bb c4bb accb 70bd
000003d0: 20a1 753d a05c 733d 24f6 1dbd 3e3d 87bd
000003e0: 0eae b13d 301e 77bc c889 b83d 184a 5f3d
000003f0: 2088 e53c 8ab9 ad3d 5e57 00bd 6e7f 923d

fc2.bias f4 [84]
-0.07177225 -0.023082688 -0.050093807 0.0044621676 0.029119037 0.014575712 -0.028978951 -0.08036972
0.0002772063 0.045688152 -0.0049591586 -0.0012288019 -0.068280354 -0.02517154 0.008103982 0.046379596
0.066573575 -0.049374238 -0.07827503 0.020570293 0.004868008 0.082606286 0.074965864 0.05461651
0.042566344 -0.047127508 -0.043655463 -0.016591825 -0.023818456 -0.08494218 -0.077469155 0.060475364
0.016620904 -0.078687675 0.0155450925 -0.07604974 -0.0065562725 -0.069283575 0.018894002 0.04542184
0.05413702 -0.07775563 0.050308943 0.0363774 0.06536506 -0.059215248 0.08058475 0.08672802
-0.05054442 -0.05655979 -0.019092582 -0.005376056 0.0022815838 0.06087102 -0.017814338 -0.034700945
0.041919857 0.056945235 0.06343767 0.06044084 0.049093068 0.07537772 0.024904445 0.09124741
0.06351611 0.08599666 0.04789464 0.061693907 0.0015298501 -0.04062212 -0.06236933 0.058581874
0.06787348 -0.017348751 0.08654536 -0.004547298 -0.015858807 0.061343998 -0.0046273246 0.08479193
-0.03425981 0.00077083707 -0.06305897 0.043163702
00000000: 54fd 92bd e817 bdbc 2a2f 4dbd 6037 923b
00000010: 0c8b ee3c f8ce 6e3c 4465 edbc e198 a4bd
00000020: 0056 9139 8023 3b3d 7080 a2bb c00f a1ba
00000030: 92d6 8bbd 8c34 cebc 90c6 043c 88f8 3d3d
00000040: ba57 883d a43c 4abd a94e a0bd 0883 a83c
00000050: d083 9f3b 7c2d a93d b487 993d 90b5 5f3d
00000060: 0c5a 2e3d c608 41bd 12d0 32bd 94eb 87bc
00000070: ec1e c3bc 2af6 adbd 26a8 9ebd 04b5 773d
00000080: 9028 883c 0127 a1bd d8b0 7e3c f7bf 9bbd
00000090: 00d6 d6bb 8ce4 8dbd 98c7 9a3c 400c 3a3d
000000a0: c8be 5d3d 583e 9fbd c010 4e3d 7800 153d
000000b0: 1ede 853d b08b 72bd 9e09 a53d 769e b13d
000000c0: aa07 4fbd 3dab 67bd 0c68 9cbc a029 b0bb
000000d0: a086 153b e453 793d 60ef 91bc 9422 0ebd
000000e0: 28b4 2b3d 683f 693d 9ceb 813d d090 773d
000000f0: d015 493d a25f 9a3d 6804 cc3c ecdf ba3d
00000100: bc14 823d 041f b03d 2c2d 443d c0b2 7c3d
00000110: 4085 c83a 6163 26bd fc76 7fbd 8cf3 6f3d
00000120: 4001 8b3d f81e 8ebc b23e b13d 8001 95bb
00000130: 54ea 81bc d843 7b3d d0a0 97bb 64a7 ad3d
00000140: 0454 0cbd 0012 4a3a 1025 81bd 6ccc 303d

fc3.weight f4 [10, 84]
-0.10413927 -0.08019097 -0.02241999 -0.09927373 -0.023523591 -0.015147969 0.011991903 -0.062418085
-0.10625834 -0.004540816 -0.09957618 -0.105759256 -0.012426361 -0.0066628605 0.0451361 0.03736145
0.021078967 -0.045540966 0.09239905 -0.054887656 0.075498365 -0.013584487 -0.10549931 0.048823424
0.056881912 0.044949897 0.059376396 0.040909417 0.0126621425 0.10265026 0.053497873 -0.027609363
-0.052010056 -0.034453712 -0.091427855 -0.08419484 0.0729237 0.035774313 -0.057667416 -0.031365715
0.01137805 0.03893044 0.0608105 0.03760969 0.084106945 0.007511921 0.08950677 -0.07709433
-0.09894107 0.06503517 -0.05628192 -0.0010504425 -0.08101855 0.033934288 0.03708438 -0.09216104
-0.03153032 0.0352161 -0.1056656 0.005284846 -0.052393068 -0.102888644 0.09079241 -0.050952278
-0.06563684 0.028951637 -0.008447476 0.09521917 0.02478879 -0.011319093 0.07675364 -0.0603107
-0.033056013 -0.03675896 -0.0014209673 -0.009806126 -0.04196781 -0.0055250674 -0.026941918 0.078922845
0.033565633 -0.02058871 0.045872234 0.026867725 -0.108508855 0.033503048 0.04749068 0.03595496
0.08663624 0.060730346 -0.044800557 0.0804105 0.05013334 0.09013859 0.008652724 0.10057577
0.03746254 -0.017652221 -0.0021637976 0.05524967 -0.107255 -0.07423481 0.08284857 -0.038060963
0.0075333193 -0.039747015 -0.08435122 0.06521543 -0.06711052 -0.03802464 0.003947541 -0.070923865
-0.032089546 -0.091356516 -0.063267924 -0.09783957 0.0432904 -0.02359163 -0.09262352 0.010298029
-0.00059217215 -0.007376194 -0.08557418 -0.059010383 0.07823952 0.028532006 -0.013481237 -0.023750596
0.0053789616 -0.05329306 0.065396376 0.07257404 0.09569248 -0.08848506 -0.101047985 -0.08346689
-0.07159143 -0.02859892 0.104185216 -0.08303295 -0.02443546 -0.063918784 0.07182019 -0.0771995
-0.07195721 -0.06469775 0.101522945 0.09736065 -0.033021078 -0.081770085 0.10118268 -0.0197592
-0.04327339 -0.10738511 -0.013116159 -0.028458335 0.047196887 0.045038752 0.09054194 -0.021495841
-0.08490142 -0.100532226 0.072817095 -0.08255917 0.10742704 0.056354932 -0.058441985 0.09228226
0.08488385 -0.07256171 0.09820836 -0.059200685 -0.02015341 0.08706153 -0.045380324 0.0577415
-0.026773393 0.0830548 -0.082032174 0.05810813 -0.10819699 -0.011817589 -0.10404587 -0.0033534765
-0.0012382716 0.04907223 0.017074935 0.06291766 -0.006337069 0.043346755 0.102717675 -0.04063484
0.0033812374 -0.10119942 -0.043026857 0.070389904 -0.0034384876 -0.08746526 0.09161756 -0.020518146
0.009125404 0.06727282 0.06587551 -0.08578499 -0.060659565 0.079012565 -0.097495474 0.014720954
0.01534272 0.03403417 0.0685341 -0.072151825 0.07886135 0.032593183 -0.008202039 -0.103201896
0.026686408 -0.006508678 0.002520524 -0.035753302 -0.047726918 -0.01575268 0.09484012 -0.091776125
-0.027271658 0.038948767 -0.07757353 0.02463121 -0.062131222 0.025836311 0.03475385 -0.019896813
0.05850417 -0.10445843 0.062019117 -0.008326434 -0.027910508 -0.07636552 -0.03358966 0.023413293
0.06445081 -0.026137725 -0.05119288 -0.020512737 -0.07934683 0.05029922 -0.052494965 -0.027769193
-0.05007786 -0.041087613 0.04789395 -0.103080906 0.011854202 -0.053913902 -0.060257345 -0.007388003
00000000: f846 d5bd 2a3b a4bd 20aa b7bc 0650 cbbd
00000010: 8cb4 c0bc 302f 78bc b079 443c 1baa 7fbd
00000020: f99d d9bd 20cb 94bb 99ee cbbd 4f98 d8bd
00000030: f097 4bbc 2054 dabb a2e0 383d 5208 193d
00000040: ccad ac3c 2a89 3abd b73b bd3d e1d1 60bd
00000050: e39e 9a3d 7891 5ebc 0610 d8bd 12fb 473d
00000060: 02fd 683d 621d 383d aa34 733d a290 273d
00000070: e074 4f3c 4d3a d23d 9620 5b3d 082d e2bc
00000080: 7f08 55bd 561f 0dbd 873e bbbd 586e acbd
00000090: 0559 953d 1688 123d ab34 6cbd 5679 00bd
000000a0: 006b 3a3c 8675 1f3d 6e14 793d 9e0c 1a3d
000000b0: 4340 ac3d 9026 f63b 534f b73d a2e3 9dbd
000000c0: 9ea1 cabd 2931 853d df87 66bd 00af 89ba
000000d0: 0eed a5bd aefe 0a3d cae5 173d edbe bcbd
000000e0: f025 01bd c23e 103d 3567 d8bd 802c ad3b
000000f0: 1d9a 56bd 48b7 d2bd 5ff1 b93d 56b3 50bd
00000100: 9c6c 86bd fc2b ed3c 4867 0abc 4502 c33d
00000110: dc11 cb3c b873 39bc 0331 9d3d 5a08 77bd
00000120: be65 07bd 9090 16bd c03f baba e0a9 20bc
00000130: 70e6 2bbd a00b b5bb 4cb5 dcbc 4da2 a13d
00000140: 1e7c 093d a8a9 a8bc 86e4 3b3d b419 dc3c
00000150: e439 debd 7e3a 093d 9685 423d 8245 133d
00000160: 576e b13d 62c0 783d ca80 37bd 43ae a43d
00000170: 9e58 4d3d 959a b83d 28c4 0d3c abfa cd3d
00000180: 5272 193d 649b 90bc 80ce 0dbb 7a4d 623d
00000190: 82a8 dbbd 6c08 98bd 83ac a93d d0e5 1bbd
000001a0: 10da f63b c4cd 22bd 55c0 acbd ab8f 853d
000001b0: 3e71 89bd babf 1bbd 605a 813b 8840 91bd
000001c0: 5470 03bd 2019 bbbd 9d92 81bd 1d60 c8bd
000001d0: 4651 313d 3c43 c1bc 66b1 bdbd 10b9 283c
000001e0: 003c 1bba 00b4 f1bb 8441 afbd dfb4 71bd
000001f0: 0b3c a03d f4bb e93c 68e0 5cbc 9c90 c2bc
00000200: 0042 b03b d349 5abd 89ee 853d b3a1 943d
00000210: 6bfa c33d a837 b5bd 3ff2 cebd b0f0 aabd
00000220: 879e 92bd 4848 eabc 0f5f d53d 2e0d aabd
00000230: e02c c8bc dae7 82bd 7716 933d c51a 9ebd
00000240: 4d5e 93bd 4180 84bd 43eb cf3d 0565 c73d
00000250: 1c41 07bd 1377 a7bd dd38 cf3d 0cde a1bc
00000260: 703f 31bd b9ec dbbd 28e5 56bc 7421 e9bc
00000270: 8651 413d 8e7a 383d 0d6e b93d 0c18 b0bc
00000280: cce0 adbd d7e3 cdbd 2121 953d c814 a9bd
00000290: b502 dc3d 6ed4 663d dd60 6fbd 7bfe bc3d
000002a0: 95d7 ad3d 3c9b 94bd 7721 c93d 6b7c 72bd
000002b0: c418 a5bc 514d b23d b8e0 39bd 5a82 6c3d
000002c0: e053 dbbc a318 aa3d 7c00 a8bd ca02 6e3d
000002d0: 6296 ddbd 909e 41bc 0016 d5bd 00c6 5bbb
000002e0: 804d a2ba f6ff 483d bce0 8b3c f9da 803d
000002f0: 30a7 cfbb 5e8c 313d a55d d23d b870 26bd
00000300: c097 5d3b a441 cfbd ee3c 30bd 9528 903d
00000310: 4058 61bb fc20 b3bd fda1 bb3d ac15 a8bc
00000320: b882 153c 55c6 893d bde9 863d 0ab0 afbd
00000330: 2a76 78bd 57d1 a13d b5ab c7bd 2830 713c
00000340: 0860 7b3c 6a67 0b3d 9b5b 8c3d 56c4 93bd
00000350: 0f82 a13d 6e80 053d d861 06bc 845b d3bd
00000360: 749d da3c c046 d5bb 602f 253b 0e72 12bd
00000370: 4d7d 43bd c40b 81bc 893b c23d 1ff5 bbbd
00000380: d068 dfbc be88 1f3d dfde 9ebd 64c7 c93c
00000390: 4f7d 7ebd aca6 d33c 0e5a 0e3d a4fe a2bc
000003a0: 12a2 6f3d 4dee d5bd c207 7e3d 986b 08bc
000003b0: 94a4 e4bc 8765 9cbd 5095 09bd 3ccd bf3c
000003c0: c9fe 833d c81e d6bc a0af 51bd 540a a8bc
000003d0: 9780 a2bd 8e06 4e3d f604 57bd 387c e3bc
000003e0: 711e 4dbd 7c4b 28bd 722c 443d 151c d3bd
000003f0: 2038 423c d3d4 5cbd 68d0 76bd 1017 f2bb

fc3.bias f4 [10]
0.044767506 0.048420824 -0.0953521 0.06332994 -0.09067013 -0.031226948 -0.100521855 -0.06973856
0.024766766 -0.0016629174
00000000: 225e 373d ea54 463d f647 c3bd 21b3 813d
00000010: 43b1 b9bd a8cf ffbc 67de cdbd 17d3 8ebd
00000020: ace3 ca3c 40f6 d9ba
